checkpts/ngram.pt (torch, 338692 bytes, 11 tensors)

embedding.weight f4 [66, 66]
0	0x3cb28bb8	0.021795139
1	0xbe8769f0	-0.2644801
2	0xbf55e030	-0.8354521
3	0xbd4f33dc	-0.050586566
4	0x3f8152d0	1.0103397
5	0x3e82872e	0.2549376
6	0xbe16df74	-0.14733678
7	0xbf09eb6e	-0.5387486
8	0x3e536170	0.20642638
9	0xbf33c38d	-0.7022026
10	0xbeea1564	-0.45719445
11	0x3e411847	0.18856917
12	0x3fdb4e57	1.7133282
13	0x3f1633dc	0.5867288
14	0xbf82c8a9	-1.0217487
15	0x3ed15ae5	0.4088966
16	0x3e0cab81	0.13737299
17	0xbf2bcfb1	-0.67113787
18	0xbdf328f9	-0.11873049
19	0xbe4d239d	-0.20033117
20	0x3f1fc5bb	0.6241109
21	0xbe49deb4	-0.19713861
22	0xbd3392f7	-0.04384133
23	0x3c30365e	0.01075515
24	0x3f1e1e47	0.6176495
25	0xbdded5a0	-0.108805895
26	0x3f8c9b3f	1.0984877
27	0xbf2aece6	-0.6676773
28	0xbf2fdbde	-0.68694866
29	0x3e9336bf	0.28752705
30	0x3e88614c	0.26636732
31	0xbf2ac352	-0.66704285
32	0x3f3c7b12	0.7362529
33	0xbdb2ff19	-0.08740062
34	0x3e37d97d	0.17954059
35	0x3ef7f113	0.48426113
36	0x3f0282fd	0.5098112
37	0xbe91a0c5	-0.2844297
38	0xbf35599d	-0.70839864
39	0xbeffc96b	-0.49958357
40	0x3f433332	0.7624999
41	0xbf5827a4	-0.84435487
42	0x3e14e3f0	0.14540076
43	0x3efa978b	0.48943743
44	0xbf19ef03	-0.6013033
45	0xbfaab5dc	-1.3336749
46	0xbfbf48ad	-1.4944054
47	0xbf8b4604	-1.0880742
48	0xbf0f546c	-0.5598819
49	0x3d9f29ce	0.077716455
50	0xbeee9a27	-0.46601984
51	0xbefdfefe	-0.49608606
52	0x3e09c477	0.13453852
53	0x3d0f0d74	0.03492494
54	0x3f167093	0.58765525
55	0x3f138313	0.5762188
56	0x3e95ee13	0.292832
57	0xbe8d4e00	-0.27598572
58	0x3e550506	0.20802698
59	0x3f21ca99	0.63199764
60	0xbd776aad	-0.06040447
61	0xbf80fe99	-1.0077697
62	0x3f0f0602	0.5586854
63	0x3eaf13ed	0.3419489
64	0xbf228c4c	-0.63495326
65	0x3ef5c3a5	0.48000827
66	0x3d907b95	0.070548214
67	0x3f0ea971	0.557273
68	0xbe87030c	-0.26369512
69	0xbb906d16	-0.0044075353
70	0xbeddafbb	-0.43298134
71	0xbdae0b73	-0.084982775
72	0xbf5ba457	-0.8579764
73	0x3e318fb6	0.17339978
74	0x3eeed4ac	0.4664663
75	0x3f52e948	0.8238721
76	0x3f1c9797	0.6116881
77	0xbec1a20e	-0.3781895
78	0x3ec0057e	0.3750419
79	0x3f153e10	0.58297825
80	0xbeb8bf90	-0.3608365
81	0x3f5ae330	0.8550291
82	0xbf938ae1	-1.1526757
83	0x3e73f40b	0.23823564
84	0x3eb44056	0.35205334
85	0xbf6ce8ef	-0.9254293
86	0xbf933c0d	-1.1502701
87	0xbec19a38	-0.37812972
88	0xbe5e432c	-0.21705312
89	0x3e4e3010	0.20135522
90	0xbe64e59f	-0.22353218
91	0x3f316ab5	0.69303447
92	0x3f56ff26	0.83983076
93	0xbe7dbe9e	-0.24779746
94	0xbf831f21	-1.0243875
95	0x3de8d5f8	0.11368936
96	0xbea206bf	-0.31645772
97	0x3e530472	0.20607165
98	0x3cfbd6b9	0.030742036
99	0xbf065a8b	-0.5248191
100	0xbf657edb	-0.8964669
101	0x3faff357	1.3746136
102	0x3f4c0634	0.79696965
103	0xbfaaa564	-1.3331723
104	0x3d9e9cad	0.07744727
105	0x3f09267a	0.53574336
106	0xbee11cb8	-0.43967223
107	0xbfcd1ac6	-1.6023796
108	0x3eac2625	0.33622852
109	0xbf8e903e	-1.1137769
110	0x3db91bb7	0.09038489
111	0xbe5cc9ce	-0.21561357
112	0x3facfc8e	1.3514574
113	0x3d6e6fbd	0.05821203
114	0x3ef3d96b	0.47626814
115	0x3b866f7a	0.0041026445
116	0xbe29834f	-0.16553997
117	0xbd24c589	-0.040227447
118	0x3ef909bd	0.48640242
119	0xbf511890	-0.81678104
120	0xbf8810ac	-1.0630088
121	0xbede2e65	-0.4339477
122	0xbf629cef	-0.8852071
123	0xbe8b9445	-0.27261558
124	0xbf57e093	-0.8432705
125	0xbedbcdbe	-0.42930406
126	0x3f31adaf	0.69405645
127	0xbfa73ccd	-1.306543
128	0xbcf5c14a	-0.029999394
129	0x3dce5e26	0.10076551
130	0x3ed456c1	0.41472438
131	0xbdfc761c	-0.12327215
132	0xc006eea6	-2.108316
133	0x3fb3e619	1.4054595
134	0x3dd10084	0.102051765
135	0x3f77e714	0.9683697
136	0x3f1ac75d	0.60460454
137	0xbf6a0443	-0.9141275
138	0xbf229d8c	-0.6352165
139	0x3f392a04	0.72329736
140	0xbfade37b	-1.3585047
141	0x3dbe0ea2	0.09280135
142	0x40091d73	2.1424224
143	0x3e933b7d	0.28756323
144	0x4014f6a8	2.3275547
145	0xbffad46f	-1.959608
146	0x3e53395a	0.20627347
147	0xbfb120cd	-1.3838135
148	0x400f3239	2.2374403
149	0xbfbfe7d4	-1.4992623
150	0x3f53d885	0.8275226
151	0x3bda6700	0.0066651106
152	0xc00afd43	-2.1717079
153	0x3edbb703	0.42913064
154	0x3f7d93a0	0.9905338
155	0x3f56c0ed	0.8388813
156	0x3f939255	1.1529032
157	0xbf9d4b7a	-1.2288659
158	0xbfed2459	-1.8526717
159	0xbf5659db	-0.8373086
160	0xbf8b747f	-1.0894927
161	0xbfdfb60e	-1.7477434
162	0xbf113992	-0.5672847
163	0xbd266f80	-0.04063368
164	0x3f9b4087	1.2129067
165	0xbf93d040	-1.1547928
166	0xc0125186	-2.2862258
167	0xbfb9534d	-1.4478546
168	0x3e0bf80c	0.13668841
169	0x3f83fee0	1.0312157
170	0xbf726260	-0.9468136
171	0xbfaa59de	-1.3308675
172	0xbf07e655	-0.53085834
173	0x3f4c1575	0.7972024
174	0x3f9be604	1.217957
175	0x3f9aedf7	1.2103871
176	0xbf80c3d4	-1.0059762
177	0xbfb8d5c1	-1.4440233
178	0x3f1d287d	0.61389905
179	0xbfac68ae	-1.3469446
180	0xbf3557a5	-0.7083686
181	0xbec6fe73	-0.38866004
182	0xbff4dd4f	-1.9130038
183	0x3e9aab75	0.30208936
184	0xbf3b5260	-0.7317257
185	0xbee12c65	-0.43979183
186	0xc0034ff1	-2.0517542
187	0xbeb6a2ac	-0.35670984
188	0x3f6e15ea	0.9300219
189	0xbe4499b0	-0.19199252
190	0x3e86665f	0.26249978
191	0x3f83d560	1.0299492
192	0x3f701525	0.93782264
193	0x3ec72ec5	0.3890287
194	0xc02443da	-2.5666413
195	0x3fc61e9b	1.547809
196	0xbf6ac23a	-0.91702616
197	0xbfc9071c	-1.5705295
198	0xbff75fae	-1.9326074
199	0xbfaae51a	-1.3351166
200	0x3fa98fe5	1.3247038
201	0x3dbd6d2a	0.09249337
202	0x3f8f8ddc	1.1215167
203	0x3ec4cc6f	0.3843722
204	0xbfe73a04	-1.806458
205	0x3f0eccd4	0.5578129
206	0x3cdfb166	0.02730627
207	0x3ccef6d1	0.025264176
208	0xbfc77787	-1.5583352
209	0x3f3a658a	0.72811186
210	0x3f91e3ce	1.1397645
211	0x3dbf5c08	0.093437254
212	0x3e8e0b02	0.27742773
213	0xbf595b55	-0.84904987
214	0x3df3b589	0.118998595
215	0x3ff43604	1.9078984
216	0x3ea5001f	0.32226655
217	0x3e1c498d	0.15262432
218	0xbdf4fbd2	-0.119620934
219	0x4034ac9e	2.8230357
220	0xbfcc2465	-1.5948607
221	0x3df6dd34	0.1205391
222	0xbedc11b6	-0.42982262
223	0x3e7a9710	0.24471688
224	0xbe33a4e3	-0.17543368
225	0x3dda579f	0.10661244
226	0xbf9b2410	-1.212038
227	0xbebfe686	-0.37480563
228	0xbe816561	-0.25272658
229	0xbf86a6ad	-1.0519615
230	0x3efb67c4	0.49102604
231	0x3ec1ba0a	0.3783725
232	0xbe80f19d	-0.25184336
233	0x3e2339da	0.15940037
234	0xbe635035	-0.22198565
235	0xbf5f72ac	-0.8728435
236	0xbe84a644	-0.259081
237	0xbe941ef9	-0.2892988
238	0xbee0c7ad	-0.4390234
239	0x3edb323c	0.42811763
240	0x3f3c0833	0.7345001
241	0xc01bdd58	-2.4353848
242	0x3f4deb9b	0.8043763
243	0x3f9b5dd4	1.2138009
244	0xbd40a3b6	-0.047031127
245	0xbef6cf95	-0.48205248
246	0xbd46ac70	-0.048504293
247	0xbf2f4244	-0.6846049
248	0x3eb06e68	0.34459233
249	0x3fdcc43b	1.7247385
250	0xbeee0d4e	-0.46494526
251	0x3db4dbcc	0.088309854
252	0xbe442092	-0.1915305
253	0xbfaa402b	-1.3300833
254	0xbfae5d93	-1.3622307
255	0x3e9ba56f	0.30399653

lstm.weight_ih_l0 f4 [264, 66]
0	0xbde4f629	-0.11179764
1	0xbed4f356	-0.415919
2	0xbde733a4	-0.112891465
3	0x3d8be4a3	0.06830718
4	0xbe76b172	-0.24091128
5	0x3e1d8672	0.15383318
6	0x3e156f24	0.14593178
7	0xbee40c42	-0.44540602
8	0x3efacd42	0.48984724
9	0x3ea472ca	0.32118827
10	0x3f10aca6	0.5651344
11	0x3da699b8	0.08134788
12	0xbf1cb881	-0.6121903
13	0xbe7690d8	-0.24078691
14	0xbf773dbf	-0.9657859
15	0x3fa23040	1.2670975
16	0x3b27eefb	0.0025624621
17	0x3f48e370	0.7847204
18	0xbf322c80	-0.6959915
19	0x3e5b5440	0.21418858
20	0x3d84268d	0.064526655
21	0xbe899dcf	-0.2687821
22	0x3f44b969	0.76845413
23	0xbf83e7af	-1.0305079
24	0x3fad2248	1.3526087
25	0xbebb0109	-0.36524227
26	0x3e8586b4	0.26079333
27	0xbe02f816	-0.1278995
28	0xbe209537	-0.15681921
29	0x3f4d1c85	0.8012164
30	0xbebb5aa3	-0.36592588
31	0x3f475c14	0.77874875
32	0x3f2a9171	0.66628176
33	0xbdf0b543	-0.11753323
34	0xbd19740f	-0.037464198
35	0x3f8e61a4	1.1123548
36	0x3f80017f	1.0000457
37	0xbdbadab1	-0.09123743
38	0xbf873567	-1.0563172
39	0xbe86f8c2	-0.26361662
40	0xbe2bd916	-0.1678203
41	0x3e322f36	0.17400822
42	0xbf2bbd6a	-0.670859
43	0x3f4f7187	0.81032604
44	0x3bef0794	0.0072946046
45	0xbe4e814e	-0.20166513
46	0x3eb18edb	0.34679303
47	0x3da1b28e	0.07895385
48	0x3ddbbc46	0.1072927
49	0xbd810dbc	-0.06301448
50	0xbe434715	-0.19070084
51	0xbdd7f112	-0.105440274
52	0x3db1c69a	0.08680458
53	0xbea21e81	-0.31663898
54	0xbf0a673b	-0.5406377
55	0x3c1f8c89	0.009738096
56	0x3f02cccb	0.5109374
57	0x3ddee8d0	0.10884249
58	0x3e5c5a6c	0.21518868
59	0x3eeff95a	0.46869928
60	0xbdde0f89	-0.10842807
61	0xbee69c9d	-0.4504136
62	0xbe4536a6	-0.19259128
63	0x3dc442f9	0.095830865
64	0x3e12bd58	0.14330041
65	0x3ea64fbb	0.32482705
66	0x3f32d65e	0.6985835
67	0x3e2aae15	0.1666797
68	0xbee62d5c	-0.4495648
69	0x3e00ac6e	0.12565777
70	0x3f231a15	0.63711673
71	0x3e2c279b	0.16811983
72	0xbf23795d	-0.6385706
73	0xbec5cd6d	-0.3863329
74	0xbf822fff	-1.0170897
75	0xbf1e40c9	-0.61817604
76	0xbf5307c5	-0.8243373
77	0xbe65392a	-0.22385088
78	0xbf1068f0	-0.5641012
79	0xbeb1aa20	-0.34700108
80	0x3f082b9a	0.5319153
81	0x3f1179f5	0.56826717
82	0x3e40b346	0.18818387
83	0x3d81abb4	0.06331578
84	0x3f26c7dc	0.6514871
85	0x3de2323a	0.11044736
86	0x3eb44ff5	0.35217252
87	0xbdde2ff1	-0.10848988
88	0x3dbe51dd	0.09292958
89	0x3edd3ace	0.43208927
90	0xbf01f7b5	-0.50768596
91	0x3e040ca1	0.12895443
92	0xbebc11f9	-0.36732462
93	0x3d1134e8	0.035450846
94	0xbfa4c1fc	-1.2871699
95	0x3f9acaf7	1.209319
96	0xbe43ba5d	-0.1911406
97	0xbf39ba43	-0.7254984
98	0x3eabb860	0.33539104
99	0x3fa93558	1.3219404
100	0xbd3473e1	-0.044055823
101	0xbd6888f1	-0.056771223
102	0xbf36d18b	-0.7141349
103	0xbebb2831	-0.365541
104	0xbd3e809d	-0.046509374
105	0x3e42bd78	0.19017589
106	0x3eb34859	0.35016134
107	0x3e09cfa3	0.13458113
108	0x3e6f088d	0.23343106
109	0x3ecd5478	0.40103507
110	0x3e8b5ce0	0.27219296
111	0x3e2345c9	0.1594459
112	0xbe93d311	-0.28871968
113	0x3eca4a03	0.3950959
114	0xbf21c5ac	-0.6319225
115	0x3ef4e05a	0.47827417
116	0x3eed0011	0.46289113
117	0x3dd3f311	0.103490956
118	0xbf6558e5	-0.8958877
119	0xbedd85bb	-0.4326609
120	0xbe0644ad	-0.13112135
121	0x3dea9f57	0.11456173
122	0xbf7570ee	-0.9587544
123	0x3d99f262	0.07516934
124	0xbdc1259f	-0.09431004
125	0x3da41bc9	0.08013112
126	0xbf391e06	-0.7231144
127	0x3e126c9d	0.14299245
128	0x3d2c8cde	0.04212653
129	0x3ebf1238	0.37318587
130	0x3e1b7761	0.15182258
131	0x3ed63465	0.4183685
132	0x3e58c200	0.21167755
133	0xbe12659e	-0.14296576
134	0xbece99ae	-0.40351623
135	0xbe7e440e	-0.24830648
136	0x3d351b56	0.044215523
137	0xbe99c1a0	-0.30030537
138	0xbea66d89	-0.32505444
139	0x3bbd4e85	0.0057771825
140	0x3d530270	0.051515996
141	0x3e711491	0.23543002
142	0x3d881f57	0.066466026
143	0xbed521e3	-0.41627416
144	0xbf533825	-0.82507545
145	0xbf00439c	-0.50103164
146	0xbec8d8ca	-0.39227897
147	0xbe85d6d2	-0.26140457
148	0xbf825da2	-1.0184824
149	0x3ea85a54	0.32881415
150	0xbf83c41b	-1.0294222
151	0x3e853d15	0.26023164
152	0xbf30008a	-0.6875082
153	0xbfb81e40	-1.4384232
154	0xbf010c87	-0.5040974
155	0xbd189e95	-0.03726061
156	0x3f401b16	0.7504133
157	0x3d2416e7	0.040060904
158	0x3ed96ecd	0.42467347
159	0xbc08a047	-0.008338994
160	0xbdbf2f1a	-0.09335156
161	0x3f031c2d	0.5121487
162	0x3ea2589b	0.31708226
163	0x3f3d319b	0.73903817
164	0xbe2840f3	-0.16431026
165	0x3e46ba82	0.19407085
166	0x3cf54fcf	0.029945282
167	0x3eba8927	0.36432764
168	0x3e1b819c	0.15186161
169	0xbe303bf6	-0.17210373
170	0xbee1972e	-0.44060653
171	0xbf8d90d5	-1.1059824
172	0x3f1cec55	0.61298114
173	0xbf78f390	-0.97246647
174	0xbeb4f239	-0.3534105
175	0xbe862528	-0.26200223
176	0x3eb6a793	0.35674724
177	0x3f8495eb	1.0358251
178	0xbd121acf	-0.035670098
179	0x3caaeecc	0.02086582
180	0x3e676e22	0.22600606
181	0x3ea2c0b2	0.3178764
182	0xbf018411	-0.5059214
183	0x3e484e93	0.19561224
184	0x3e86d119	0.26331404
185	0x3f9e4bdf	1.2366904
186	0xbe95ffb2	-0.29296643
187	0xbf45cfe3	-0.77270335
188	0xbf213850	-0.6297655
189	0x3e4c0bf4	0.19926435
190	0xbe8d5e3e	-0.27610964
191	0x3eb00b6f	0.34383723
192	0xbec1815c	-0.37794006
193	0xbff909f9	-1.9456168
194	0xbe0fcf74	-0.14043981
195	0xbea71cb9	-0.326391
196	0xbe30eb5a	-0.1727728
197	0xbe6a300f	-0.22869895
198	0xbf845393	-1.0338005
199	0xbf9641ac	-1.1738791
200	0x3ed0554e	0.40690082
201	0xbea43dfa	-0.32078534
202	0x3e26b3a4	0.16279465
203	0x3ee05857	0.43817398
204	0xbee30b91	-0.44344762
205	0xbe119d90	-0.14220262
206	0xbea3c5e9	-0.3198693
207	0xbf2f8519	-0.68562466
208	0xbec9cb20	-0.39412785
209	0x3e50d3f8	0.2039336
210	0xbde00d67	-0.10940056
211	0xbf973c0f	-1.1815203
212	0xbe5c516b	-0.21515433
213	0x3f4e3e3e	0.80563724
214	0x3f096529	0.53669983
215	0xbf5d72f0	-0.86503506
216	0xbf64ef89	-0.89428
217	0x3edf7fb3	0.43652114
218	0xbf3dd579	-0.7415386
219	0x3f0b5078	0.5441966
220	0x3efaec25	0.4900829
221	0xbc6f81da	-0.014618361
222	0x3e94b550	0.2904458
223	0xbfc5a307	-1.5440377
224	0xbf435f1b	-0.76316994
225	0x3eed7c89	0.46384075
226	0x3e514612	0.20436886
227	0x3f03fddd	0.5155924
228	0x3f837d64	1.0272641
229	0xbf375f24	-0.7162955
230	0xbf197c06	-0.5995487
231	0xbf3b68e4	-0.73206925
232	0x3f15ffc4	0.5859339
233	0xbeb10361	-0.3457289
234	0xbe61a06d	-0.22033854
235	0xbe6515e7	-0.22371636
236	0x3f025f69	0.50926834
237	0xbea93715	-0.33049837
238	0xbf869e6c	-1.0517097
239	0x3f1d07d7	0.6134009
240	0xbe9cf1f4	-0.30653346
241	0xbddfcca0	-0.10927701
242	0x3e0ca66a	0.13735357
243	0x3efbf4fa	0.4921034
244	0xbeac3e96	-0.336415
245	0xbf1941d2	-0.5986606
246	0xbea0aa88	-0.31380105
247	0x3ee9a482	0.45633322
248	0x3ea46794	0.32110274
249	0x3eb62fb4	0.3558327
250	0xbf0ba2a5	-0.5454505
251	0x3ecdb846	0.40179652
252	0x3e86e819	0.2634895
253	0xbeb5dd46	-0.3552038
254	0xbefb34d2	-0.49063736
255	0xbe77d09b	-0.2420067

lstm.weight_hh_l0 f4 [264, 66]
0	0x4001988e	2.0249362
1	0xbf571f1e	-0.84031856
2	0xbfa8427c	-1.314529
3	0xbfadb53d	-1.3570935
4	0x3ef3e665	0.47636715
5	0xbf40ab09	-0.7526098
6	0xc00e2d59	-2.2215178
7	0xbe0031ce	-0.12518999
8	0x3f171277	0.5901255
9	0xbe680743	-0.2265902
10	0x3ea72830	0.32647848
11	0xbee18e3a	-0.44053823
12	0xbf10b2e9	-0.56522995
13	0x3f1da90a	0.6158606
14	0x3e94acdb	0.29038128
15	0x3f4f5091	0.8098231
16	0xbef77414	-0.48330748
17	0xbf94c5c3	-1.1622852
18	0x3f6c984a	0.92419875
19	0x3f3a50dd	0.7277964
20	0xbf72d9b1	-0.9486342
21	0xbec85c83	-0.3913308
22	0x3ee0578a	0.43816787
23	0xbf4da23a	-0.80325663
24	0xbebdd1c4	-0.370741
25	0xbf22f08b	-0.6364829
26	0x3f701798	0.93786
27	0xbfb385d1	-1.4025213
28	0xbf870117	-1.0547208
29	0xbd8e243f	-0.06940507
30	0x3f045102	0.5168611
31	0x3fa1c5b4	1.2638459
32	0x3e7dca8b	0.24784295
33	0xbf1cbf4f	-0.61229414
34	0xbf5392a0	-0.82645607
35	0xbe2693f1	-0.16267373
36	0x3e94993d	0.29023162
37	0xbec30115	-0.38086763
38	0xbf27926d	-0.65457803
39	0x3f17cffc	0.59301734
40	0x3e1e5213	0.15460996
41	0xbf0aaa32	-0.5416595
42	0xbed309d1	-0.41218427
43	0x401b56fb	2.4271839
44	0xbecb44ae	-0.39700836
45	0x3f29f065	0.6638244
46	0x3e4dd874	0.20102102
47	0x3e29b118	0.16571462
48	0x3f9b2edf	1.2123679
49	0xbf8cd4f3	-1.1002487
50	0x3f0c33af	0.5476636
51	0x3eb351d2	0.3502336
52	0xbd8a7723	-0.06761005
53	0xbf9849db	-1.1897539
54	0xbfcbc78a	-1.592027
55	0xbdb657d7	-0.08903473
56	0xbef77ef6	-0.4833905
57	0x3e9b801a	0.3037117
58	0x3fabda5d	1.3426014
59	0xbf8e76fa	-1.1130059
60	0x3fdcc115	1.7246424
61	0x3e4fa540	0.20277882
62	0xbf23ca3a	-0.6398045
63	0xbd1d88f2	-0.03846068
64	0xbf397c8e	-0.7245568
65	0xbe195470	-0.14973617
66	0xbfcc9202	-1.5982058
67	0x3f2bc9b5	0.67104656
68	0xbfadf54d	-1.3590485
69	0xbe36c861	-0.17849876
70	0xbf0b258c	-0.54354167
71	0xbfe86d76	-1.8158405
72	0xbe1f79b0	-0.15573764
73	0x3e83990b	0.257027
74	0xbf01ee26	-0.5075401
75	0x3f066694	0.5250027
76	0x3e8e0fd4	0.2774645
77	0xbd115260	-0.03547895
78	0xbe3af16a	-0.18256155
79	0x3f8907c3	1.0705494
80	0x3f714692	0.94248307
81	0x3f3bbc64	0.73334336
82	0xbf2864b1	-0.6577864
83	0x3f959250	1.1685276
84	0x3e98a4e1	0.29813293
85	0x3f81502e	1.0102594
86	0xbe868430	-0.26272726
87	0xbeebf33c	-0.4608401
88	0xc0142a8f	-2.3150976
89	0x3ebf8e13	0.37413082
90	0x3d99e642	0.07514621
91	0x3fa7604a	1.307626
92	0xbcf8da06	-0.0303774
93	0xbfd8b36b	-1.6929754
94	0xbfd0dd03	-1.6317447
95	0xc00f869c	-2.242591
96	0x3fb779c5	1.4334036
97	0xbea65919	-0.3248985
98	0xbfba3e01	-1.4550172
99	0xbe46e86c	-0.194246
100	0xbe7a46fc	-0.24441141
101	0x3f62ecb7	0.8864245
102	0x3e53f370	0.20698333
103	0xbf8c952b	-1.0983022
104	0x3e2aa360	0.16663885
105	0xbf233f30	-0.6376829
106	0x3ee57a87	0.44820043
107	0x3f40c7f2	0.7530509
108	0x3fa199a3	1.2625011
109	0x3f3a2236	0.7270845
110	0x3f2093fb	0.627258
111	0xbe816370	-0.25271177
112	0xbe9c942d	-0.305818
113	0x3f17eaab	0.5934245
114	0x3c987877	0.01861213
115	0x3fe7d263	1.811108
116	0x3d67b902	0.05657292
117	0x3f8d8155	1.1055094
118	0xbefb01e5	-0.49024883
119	0xbb32722b	-0.0027228694
120	0xc002af94	-2.0419664
121	0xbfb54d11	-1.4164144
122	0xbf44cc92	-0.7687465
123	0x3e920a93	0.28523692
124	0x3fd4b10c	1.661653
125	0xbed67a53	-0.418902
126	0x3ed0fdaa	0.4081853
127	0x3f88d035	1.068854
128	0x3f2c6a64	0.6734984
129	0xc00295bf	-2.0403898
130	0x3f70f113	0.9411785
131	0x3ece8663	0.40336904
132	0x3fae46b7	1.361533
133	0xbf0ebb30	-0.55754375
134	0x3fb9e674	1.4523454
135	0xbdd90aaf	-0.10597741
136	0x3f996f4c	1.198709
137	0x3eed3079	0.46326044
138	0xbfa30179	-1.2734824
139	0xbe7ffeae	-0.24999496
140	0x3f37a05e	0.71729076
141	0x3dd5c4fd	0.10437963
142	0xbf38816f	-0.720725
143	0x3f607c2f	0.8768949
144	0xbeecca83	-0.46248254
145	0x3e9213e5	0.28530803
146	0x3ea0432d	0.3130125
147	0x3f428c3a	0.7599522
148	0x3ea69348	0.32534242
149	0x3ee71a93	0.45137462
150	0xbf7052c5	-0.93876296
151	0xbf1b7755	-0.6072896
152	0xbedfaf17	-0.4368827
153	0xbf91003c	-1.1328197
154	0xbe439961	-0.19101478
155	0xbec692dd	-0.38783923
156	0x3edab131	0.4271331
157	0x3f3265d7	0.69686645
158	0x3f917208	1.1362925
159	0x3f6fa90e	0.9361733
160	0xbf92fbbd	-1.1483074
161	0x3e1a6253	0.1507657
162	0xbeff3194	-0.49842513
163	0xbfc39d6c	-1.5282416
164	0x3f274499	0.65339047
165	0xbf0c7638	-0.5486789
166	0xbea49a6c	-0.32149065
167	0xbda4f3af	-0.080542915
168	0x3e908c47	0.28232023
169	0xbf2e33be	-0.680477
170	0xbd607ff0	-0.05480951
171	0xbf3517c0	-0.70739365
172	0x3f36f856	0.7147268
173	0x3fafdd68	1.3739443
174	0xbf6774df	-0.90412706
175	0xbf0e0a7f	-0.55484766
176	0x3e904bc9	0.2818282
177	0x3e35a7c4	0.17739779
178	0xbf4bf305	-0.79667693
179	0x3f841d5f	1.0321463
180	0x3e3fd8b6	0.18735012
181	0x3f982191	1.1885244
182	0x3fd3f1ed	1.6558205
183	0xbf598d4b	-0.8498122
184	0x3e2789b0	0.16361117
185	0xbdbf9c60	-0.09355998
186	0xbf71229d	-0.9419344
187	0xbf85af40	-1.0444107
188	0xbf65c26d	-0.89749795
189	0x3f2ee3fd	0.6831663
190	0xbfb3fc9f	-1.4061469
191	0x3f9282ec	1.1446204
192	0xbfd07f3a	-1.6288826
193	0xbdd012b0	-0.10159814
194	0x3f7bf67f	0.98423
195	0xbec3dc84	-0.38254178
196	0x3f02ef14	0.51146054
197	0x3f921ad8	1.1414442
198	0x3edcd57f	0.43131635
199	0xbe8d7566	-0.2762863
200	0xbdfff04b	-0.12497004
201	0x3d8f065a	0.06983633
202	0xbf60d725	-0.87828285
203	0xbfa8386d	-1.314222
204	0x3e2bb877	0.16769587
205	0x3e21544c	0.15754813
206	0xbf806865	-1.0031859
207	0xbf17ccbe	-0.59296787
208	0x3eb99476	0.3624608
209	0xbddf5003	-0.10903933
210	0x3f07d05a	0.53052294
211	0x3d300b54	0.042979553
212	0x3f814868	1.0100222
213	0x3e620123	0.22070746
214	0xbe91d46f	-0.28482386
215	0xbfd93046	-1.6967857
216	0x3fae662a	1.3624928
217	0xbea3691e	-0.31916136
218	0xbfd393f0	-1.6529522
219	0xbf480ed7	-0.78147644
220	0xbfb692f4	-1.4263597
221	0xbf136cb9	-0.5758777
222	0xbe24db30	-0.16099238
223	0xbf6bba9a	-0.92081606
224	0x3f0f66b6	0.560161
225	0xbed9730c	-0.42470586
226	0xbf995807	-1.1979989
227	0x3f842a45	1.03254
228	0xbeddc9ca	-0.43318015
229	0xbee4e2a0	-0.4470415
230	0xbf9bec69	-1.2181522
231	0x3fc2e3ae	1.5225732
232	0x3ea7d31f	0.3277826
233	0x3ee9c864	0.45660698
234	0xbeff12cb	-0.49819025
235	0x3f73abb5	0.9518388
236	0xbe03006a	-0.12793127
237	0x3f21610e	0.6303872
238	0xbd9a8761	-0.07545353
239	0xbde85576	-0.113444254
240	0xbe0828b6	-0.1329678
241	0x3f4d6323	0.80229396
242	0x3f2625ce	0.64901435
243	0x3f9e6472	1.2374403
244	0x3ed24f25	0.41076007
245	0xbee8421f	-0.45362946
246	0xbfa2d5fe	-1.2721555
247	0xbf0fc63b	-0.5616185
248	0x3e3c8c3c	0.1841287
249	0x3e9e7f4f	0.30956504
250	0xbe60f084	-0.2196675
251	0x3e8bfcd7	0.2734134
252	0x3e86019f	0.26173112
253	0xbfd365a1	-1.651539
254	0xbf6400f4	-0.89063954
255	0x3fddf2e4	1.7339749

lstm.bias_ih_l0 f4 [264]
0	0x3fac37a7	1.3454484
1	0x3ece5424	0.4029857
2	0x3efe51b2	0.49671704
3	0x3f7280ab	0.9472758
4	0x3f4ddc73	0.80414504
5	0x3f305720	0.6888294
6	0x3f57c4b7	0.8428454
7	0x3e9398fc	0.28827655
8	0x3f031374	0.5120156
9	0x3edb07e4	0.42779458
10	0x3eddac53	0.43295535
11	0x3ec8b34f	0.39199302
12	0x3fc1de4b	1.5145963
13	0x3f61af19	0.881578
14	0x3e93b54e	0.28849262
15	0x3f2c09e4	0.6720259
16	0x3f5be1c9	0.85891396
17	0x3db91159	0.09036512
18	0x3f0abeb8	0.54197264
19	0x3f63d5d6	0.8899816
20	0x3f5ed35a	0.87041247
21	0x3f4f233f	0.80913156
22	0x3f4f7490	0.81037235
23	0x3dd4aead	0.10384879
24	0x3eda1d8d	0.4260067
25	0x3f705ce7	0.9389176
26	0x3ea101ec	0.3144678
27	0xbd070c2b	-0.03297059
28	0x3ed69d14	0.41916716
29	0x3ec30588	0.38090158
30	0xbd0b4915	-0.034005243
31	0x3eae711e	0.34070677
32	0x3e7d8084	0.24756056
33	0x3e7d2beb	0.24723785
34	0x3f063541	0.5242501
35	0x3f90f17e	1.1323698
36	0x3e2b7326	0.16743144
37	0x3eb0bd57	0.34519455
38	0x3f616616	0.88046396
39	0x3eebbc33	0.46042022
40	0x3f1cd00d	0.6125496
41	0x3ef4acda	0.47788125
42	0x3f37dff2	0.7182609
43	0x3ec7ad4e	0.38999408
44	0x3ed22c14	0.41049254
45	0x3f4c460f	0.797944
46	0x3f31453d	0.69246274
47	0x3f32e00e	0.6987313
48	0x3f3adbd1	0.72991663
49	0x3f5f44cb	0.87214345
50	0x3eb3ac99	0.3509262
51	0x3f761200	0.96121216
52	0x3ef6bdfb	0.4819182
53	0x3f2fa1bd	0.6860617
54	0x3f01f89e	0.50769985
55	0x3f0c94d8	0.5491462
56	0x3f9112d3	1.133387
57	0x3f473217	0.77810806
58	0x3f093782	0.53600323
59	0x3f8a7969	1.0818301
60	0x3cf863aa	0.030320961
61	0x3eac37f2	0.33636433
62	0x3fc0ed94	1.5072503
63	0x3eea0d92	0.45713478
64	0x3ef5e880	0.48028946
65	0x3ee617d5	0.44940057
66	0x3ea674f6	0.3251111
67	0xbd650863	-0.0559162
68	0x3f774ba7	0.9659981
69	0x3f16f808	0.58972216
70	0x3f99ad38	1.2005987
71	0xbe5f4628	-0.21804106
72	0x3f9e03a9	1.2344867
73	0x3f806dd6	1.0033519
74	0x3f83a225	1.0283858
75	0x3da7fd1b	0.08202573
76	0x3db8562e	0.090008125
77	0xbcb98257	-0.022645159
78	0x3ee86acb	0.45393977
79	0xbec25eec	-0.37963045
80	0xbd018daf	-0.03162926
81	0x3f2dd49b	0.67902535
82	0xbf0d5add	-0.5521677
83	0x3f009e0b	0.50241154
84	0x3e319661	0.17342521
85	0xbdef38cf	-0.11680757
86	0xbe9ec608	-0.3101046
87	0x3eca9436	0.395662
88	0x3eb0bebe	0.34520525
89	0x3ef3041a	0.47464067
90	0x3daef32d	0.08542476
91	0x3f37076c	0.714957
92	0xbec72f93	-0.38903484
93	0xbe559142	-0.20856193
94	0x3f553c6b	0.83295316
95	0x3f00a7ea	0.50256217
96	0x3f841404	1.0318608
97	0x3e310382	0.17286494
98	0x3f33011c	0.6992357
99	0x3f8b6487	1.0890054
100	0x3e4f2148	0.2022754
101	0x3f32198c	0.6957023
102	0x3f802015	1.0009791
103	0x3e392a35	0.18082507
104	0x3f13cbc6	0.5773281
105	0x3f2b6c81	0.6696244
106	0x3e4c7e58	0.19970071
107	0x3fa61606	1.2975471
108	0x3f064e1e	0.5246295
109	0x3d953b2b	0.07286676
110	0xbefa0dbd	-0.48838606
111	0x3ea53b43	0.32271776
112	0xbed01160	-0.40638256
113	0x3f30a481	0.69001013
114	0xbdafb398	-0.08579177
115	0x3c707d85	0.014678364
116	0x3f0e814b	0.55666035
117	0x3ec5ed5a	0.38657647
118	0xbe50b0c2	-0.20379928
119	0x3f23d143	0.63991183
120	0x3f06e179	0.52687794
121	0x3f652213	0.8950512
122	0x3ebddcb0	0.37082434
123	0x3e8986d3	0.26860675
124	0x3eccf731	0.40032342
125	0x3f09bbd4	0.5380223
126	0x3f6bc41f	0.9209613
127	0x3f368ce0	0.7130871
128	0x3d042ca2	0.032269128
129	0x3f8bbac0	1.0916367
130	0x3f3b90a6	0.7326759
131	0xbb55e374	-0.0032636793
132	0x3d83540e	0.064125165
133	0xbdcf513c	-0.10122916
134	0xbef2437d	-0.47317114
135	0x3ea270ab	0.31726584
136	0x3f860ccf	1.0472659
137	0xbe6c4186	-0.2307187
138	0xbf2769c5	-0.65395766
139	0xbee16d1f	-0.44028565
140	0xbc9ea418	-0.019365355
141	0x3c954b33	0.018224334
142	0xbd11434b	-0.035464566
143	0x3f13cfef	0.57739156
144	0x3db43a25	0.08800153
145	0xbc0c5c52	-0.008566933
146	0xbe98645f	-0.29764077
147	0x3e15d45c	0.1463179
148	0x3d198a3b	0.037485342
149	0x3f4900f9	0.7851711
150	0xbd05342a	-0.03252045
151	0xbe8f6b29	-0.28011444
152	0xbd7ff3c6	-0.06248834
153	0xbf2b5521	-0.6692677
154	0xbdf5a2c9	-0.119939394
155	0x3f0dc943	0.55385226
156	0xbd9c5f3d	-0.07635353
157	0x3f774511	0.9658976
158	0xbec1808b	-0.37793383
159	0x3ec43529	0.38321808
160	0xbfa8aadb	-1.3177141
161	0xbee4ed9d	-0.44712535
162	0x3ef56ada	0.47933084
163	0xbf090b62	-0.53532994
164	0x3e2b969c	0.16756672
165	0x3d80b785	0.062850036
166	0x3e171db1	0.1475742
167	0x3e86c213	0.26319942
168	0x3eca088e	0.39459652
169	0xbdb03d5e	-0.08605455
170	0xbe56b6e7	-0.20968209
171	0xbf40a566	-0.7525238
172	0x3f014942	0.5050241
173	0x3f95a9ce	1.1692445
174	0x3ed29a52	0.41133362
175	0x3e5e37e0	0.21701002
176	0x3d85dc1c	0.06536123
177	0xbf5e3cb3	-0.8681137
178	0xbe123fa8	-0.14282095
179	0x3f462a40	0.7740822
180	0x3e5d69f3	0.21622448
181	0x3da04b2c	0.07826838
182	0x3edf2cb5	0.43588796
183	0x3e730f53	0.23736314
184	0x3e4f614e	0.20251963
185	0xbeeb2a83	-0.4593087
186	0xbfa55468	-1.2916384
187	0xbe1038d6	-0.14084181
188	0x3e40d78b	0.18832223
189	0xbded561e	-0.11588691
190	0x3e3cefa0	0.18450785
191	0x3ef6f35a	0.48232538
192	0x3d920e2b	0.071316086
193	0xbd1f0302	-0.038821228
194	0x3e9ceab0	0.30647802
195	0xbf0cbfc2	-0.549801
196	0xbe67fa6d	-0.22654124
197	0x3f36767e	0.71274555
198	0x3e9bc2aa	0.30421954
199	0x3ee82e40	0.45347786
200	0x3eb9a21c	0.36256492
201	0x3f5852f3	0.8450157
202	0x3f314977	0.69252723
203	0x3f4d020d	0.80081254
204	0xbe0a023d	-0.13477416
205	0x3fd6c258	1.6778059
206	0x3ea47fe3	0.3212882
207	0x3efb62fb	0.49098954
208	0x3f01ddea	0.5072924
209	0x3f15d114	0.5852215
210	0xbdcd028d	-0.10010252
211	0x3f273f1f	0.6533069
212	0x3f44c70e	0.76866233
213	0x3f442d5a	0.766317
214	0x3f2fc9e2	0.68667424
215	0xbebb8a45	-0.3662893
216	0x3f70c43a	0.9404942
217	0x3f2d23c6	0.6763271
218	0x3ed8b9a5	0.42329136
219	0x3edf1884	0.4357339
220	0x3f2e678a	0.6812674
221	0x3f9bbc3f	1.2166823
222	0x3ed8bbc8	0.42330766
223	0x3f2a2e00	0.6647644
224	0x3f6793c3	0.9045984
225	0x3f43282f	0.7623319
226	0x3efb27a2	0.49053675
227	0x3f29508e	0.6613854
228	0x3f0341ab	0.51272076
229	0x3e9a8381	0.30178455
230	0x3f50c522	0.815508
231	0x3e0f122d	0.13971777
232	0x3f39fa44	0.726475
233	0x3f0bd9d8	0.5462928
234	0x3ef99218	0.48744273
235	0x3f8d332c	1.1031241
236	0x3fabf064	1.3432736
237	0x3eedc229	0.46437195
238	0x3e21c4ce	0.15797731
239	0xbd352737	-0.04422685
240	0x3f22092b	0.6329524
241	0x3f319ae9	0.69377
242	0x3e1aa4df	0.15101956
243	0x3eb20415	0.3476874
244	0xbbde9e46	-0.00679377
245	0x3f6f1979	0.93398243
246	0x3e08224c	0.13294333
247	0x3f4918cf	0.7855348
248	0x3ec12501	0.37723544
249	0x3e5d42f3	0.2160757
250	0x3f423910	0.7586832
251	0x3e90bed0	0.28270578
252	0x3e9d4a3e	0.30720705
253	0x3ebe2ecc	0.37145078
254	0x3f4bb6ae	0.7957562
255	0xbd935ebb	-0.07195803

lstm.bias_hh_l0 f4 [264]
0	0x3f9df6b9	1.2340919
1	0x3eea427c	0.4575385
2	0x3ecedf9b	0.40404972
3	0x3f7d0edd	0.98850805
4	0x3f29b6d0	0.66294575
5	0x3f5fadd3	0.8737461
6	0x3f307767	0.68932194
7	0x3ec08be9	0.37606743
8	0x3f024750	0.50890064
9	0x3eec356c	0.46134508
10	0x3eb0e657	0.34550735
11	0x3eab310a	0.3343585
12	0x3fdc0a1a	1.7190583
13	0x3f6795fe	0.90463245
14	0x3edfffb2	0.43749768
15	0x3f354e0a	0.70822203
16	0x3f29b6fd	0.6629484
17	0x3e5be4ab	0.21473949
18	0x3eedc077	0.46435902
19	0x3f7022de	0.93803203
20	0x3f39097b	0.7228009
21	0x3f6ae9dc	0.9176309
22	0x3f5e4b6a	0.8683382
23	0x3d914b81	0.07094479
24	0x3eddc3ed	0.43313542
25	0x3f7c4f35	0.9855836
26	0x3eb1cebe	0.34728044
27	0xbcd043cc	-0.025422953
28	0x3ed1e404	0.40994275
29	0x3ebbc643	0.366747
30	0xbd1fcf9f	-0.039016362
31	0x3eacd544	0.3375646
32	0x3e02823e	0.12744996
33	0x3e9c27d9	0.3049915
34	0x3f00b59f	0.5027713
35	0x3f82d42a	1.0220997
36	0x3ea6c9bf	0.32575795
37	0x3e203f10	0.15649056
38	0x3f740938	0.95326567
39	0x3f105512	0.56379807
40	0x3f296ec6	0.6618465
41	0x3f1fa3e3	0.62359446
42	0x3f3f9853	0.74841803
43	0x3ec1b1d3	0.37830982
44	0x3ebbfed0	0.36717844
45	0x3f487b83	0.78313464
46	0x3f576531	0.8413878
47	0x3f351852	0.70740235
48	0x3efc979a	0.49334413
49	0x3f646c24	0.8922751
50	0x3ea6c6de	0.325736
51	0x3f86636a	1.0499089
52	0x3f14394d	0.57899934
53	0x3f2c68ea	0.67347586
54	0x3ed76ba9	0.42074326
55	0x3f17f6c9	0.5936094
56	0x3f9093a3	1.1295055
57	0x3f178a38	0.5919528
58	0x3eeb7023	0.4598399
59	0x3f8bceef	1.0922526
60	0x3d2a9122	0.041642316
61	0x3e55e5f1	0.20888497
62	0x3fa7affd	1.3100582
63	0x3eaf3014	0.34216368
64	0x3ef18211	0.47169545
65	0x3f0aa967	0.5416474
66	0x3e91d064	0.28479302
67	0xbc9f900b	-0.019477865
68	0x3f7c53f6	0.98565614
69	0x3f1b7158	0.60719824
70	0x3faa0198	1.3281736
71	0xbe5da322	-0.21644261
72	0x3f96c5f9	1.1779166
73	0x3f8cf4bd	1.1012188
74	0x3f804c7d	1.0023342
75	0x3d122725	0.035681862
76	0x3d993bbc	0.074820966
77	0xbb45cde2	-0.003018253
78	0x3f07b0aa	0.5300394
79	0xbea9a87e	-0.33136362
80	0x3d16b995	0.03679808
81	0x3f357ef2	0.7089683
82	0xbf0fb3d6	-0.5613378
83	0x3f0f7e16	0.56051767
84	0x3e829837	0.25506756
85	0xbe2282eb	-0.15870254
86	0xbea82307	-0.32839224
87	0x3e811a88	0.25215554
88	0x3f04b799	0.5184265
89	0x3ebc5d37	0.36789867
90	0x3d66699a	0.056253053
91	0x3f577299	0.8415924
92	0xbeae069f	-0.33989426
93	0xbe0705b9	-0.13185777
94	0x3f41bf57	0.75682586
95	0x3ed94086	0.4243204
96	0x3f7e70be	0.9939078
97	0x3e1307f0	0.14358497
98	0x3f4bf4d8	0.79670477
99	0x3f72496f	0.946433
100	0x3eae150d	0.34000435
101	0x3f2cbfb1	0.6748
102	0x3f8aa691	1.0832082
103	0x3e72b7cf	0.2370293
104	0x3ed8273b	0.4221743
105	0x3f451e13	0.76999015
106	0x3d819da7	0.06328898
107	0x3f96c11e	1.1777685
108	0x3ef4d02f	0.4781508
109	0x3e241db3	0.16026954
110	0xbe8d4d5a	-0.27598077
111	0x3e054c20	0.1301732
112	0xbf09d94f	-0.5384721
113	0x3f0d818b	0.5527579
114	0xbe4d5307	-0.20051204
115	0xbc980ae5	-0.018559882
116	0x3efc87ad	0.49322262
117	0x3eb29103	0.3487626
118	0xbe947508	-0.28995538
119	0x3f35e89b	0.7105805
120	0x3f0f6d28	0.56025934
121	0x3f4c74a5	0.79865485
122	0x3e2a6ec7	0.1664382
123	0x3e7ba12a	0.24573198
124	0x3f04df6f	0.5190343
125	0x3f31cef2	0.694564
126	0x3f6a4bc5	0.91521865
127	0x3f41e915	0.7574628
128	0x3c81d6d4	0.015849508
129	0x3fa447f3	1.2834457
130	0x3f1de7a8	0.61681604
131	0xbdc39f7f	-0.09551906
132	0x3d801735	0.062544264
133	0xbe8dbfb7	-0.2768533
134	0xbf0b0c0c	-0.5431526
135	0x3e8c84b2	0.27444988
136	0x3f80a8aa	1.0051472
137	0xbebd5ec2	-0.36986357
138	0xbf1e0c61	-0.6173764
139	0xbe929b48	-0.28634095
140	0x3d7e7506	0.06212332
141	0xbe30c8d1	-0.17264105
142	0xbbe4db27	-0.006984133
143	0x3f062dec	0.5241382
144	0xbd2e9052	-0.042618103
145	0x3d97a3fe	0.07404326
146	0xbe6ca209	-0.23108687
147	0x3da93ccd	0.0826355
148	0x3d8965c6	0.06708865
149	0x3f43ff1b	0.76561135
150	0x3d25f55d	0.0405172
151	0xbde0788e	-0.10960494
152	0x3de77580	0.11301708
153	0xbf34910c	-0.70533824
154	0xbd21c059	-0.039490078
155	0x3efed616	0.4977271
156	0xbdb984e5	-0.09058551
157	0x3f6bda61	0.92130095
158	0xbf075a6c	-0.5287235
159	0x3ed71919	0.42011335
160	0xbf92183c	-1.1413646
161	0xbeb103b1	-0.3457313
162	0x3eda4ba9	0.4263585
163	0xbeff5401	-0.49868777
164	0x3e4b1ee7	0.19836007
165	0xbc431427	-0.01190666
166	0x3ccdc74f	0.025119452
167	0x3e704d96	0.23467097
168	0x3ef03220	0.46913242
169	0x3e03cef8	0.12871921
170	0xbdfc91f1	-0.123325236
171	0xbf55b07a	-0.83472407
172	0x3f0e38c2	0.55555356
173	0x3f798038	0.9746127
174	0x3ebda67d	0.37041083
175	0x3da097e6	0.07841472
176	0xbdc070e6	-0.09396534
177	0xbf5a5a4c	-0.8529403
178	0xbda5e215	-0.08099762
179	0x3f520116	0.82032907
180	0x3e17efb2	0.1483753
181	0x3d03b645	0.032156248
182	0x3e919a4e	0.28438038
183	0x3e608849	0.21926989
184	0x3e9abcc5	0.30222145
185	0xbecf07ad	-0.40435544
186	0xbfa99858	-1.3249617
187	0xbdd2f434	-0.10300484
188	0x3d4664b5	0.048435885
189	0xbdcdd453	-0.10050263
190	0x3dda748d	0.106667615
191	0x3f0363b7	0.5132403
192	0x3e0fb79e	0.14034888
193	0x3e06c47f	0.13160895
194	0x3e30a2ac	0.17249554
195	0xbf0db111	-0.55348307
196	0xbee12d0c	-0.4397968
197	0x3f2fcff1	0.6867667
198	0x3e1036a9	0.14083351
199	0x3eec185c	0.46112335
200	0x3eb51119	0.35364607
201	0x3f51334b	0.8171889
202	0x3f4fad3d	0.81123716
203	0x3f6d6140	0.92726517
204	0xbe85c999	-0.2613037
205	0x3fcde940	1.6086807
206	0x3ea7851a	0.32718736
207	0x3f329fee	0.69775283
208	0x3f0b5757	0.54430145
209	0x3f05046b	0.51959866
210	0xbd718794	-0.058967188
211	0x3f3ae3ff	0.73004144
212	0x3f55e876	0.8355783
213	0x3f702190	0.9380121
214	0x3f0979a0	0.5370121
215	0xbe9ffb83	-0.31246576
216	0x3f8f100b	1.1176771
217	0x3f2beed1	0.6716128
218	0x3edd67df	0.4324331
219	0x3ec52e29	0.3851178
220	0x3f26bab8	0.6512866
221	0x3f947e81	1.1601106
222	0x3e82d670	0.25554228
223	0x3f2d3cda	0.6767098
224	0x3f73c2f1	0.9521933
225	0x3f45399b	0.77041024
226	0x3eaccb31	0.33748773
227	0x3f25182f	0.64490026
228	0x3f1f447d	0.6221388
229	0x3ed20102	0.41016394
230	0x3f2bc3fe	0.67095935
231	0x3d38e194	0.045137003
232	0x3f48e109	0.78468376
233	0x3f39f854	0.72644544
234	0x3ed7245b	0.42019925
235	0x3f8bbd1e	1.0917089
236	0x3fa8ca5a	1.3186753
237	0x3ecb75a9	0.39738205
238	0x3e9180af	0.2841849
239	0x3da51516	0.080606624
240	0x3f202f9c	0.62572646
241	0x3f14eddd	0.5817545
242	0x3e307dcb	0.17235486
243	0x3e67b5a8	0.2262789
244	0xbbf580f8	-0.007492181
245	0x3f4a37bc	0.78991294
246	0x3e94b3c1	0.2904339
247	0x3f4fbbd9	0.8114601
248	0x3ec38049	0.3818381
249	0x3e9d26cc	0.30693662
250	0x3f439b48	0.76408815
251	0x3e51e9a5	0.20499285
252	0x3f019e04	0.5063174
253	0x3ec959b4	0.3932625
254	0x3f83df03	1.0302433
255	0xbda9777e	-0.082747445

lstm.weight_ih_l0_reverse f4 [264, 66]
0	0xbf57c9b5	-0.84292156
1	0xbf0b8905	-0.5450595
2	0xbee7e814	-0.4529425
3	0x3e0eac9f	0.13933037
4	0x3ea6a0c7	0.32544538
5	0x3e681a6d	0.2266633
6	0xbdbb2c99	-0.09139366
7	0x3f248175	0.64260036
8	0xbe294c67	-0.16533051
9	0x3efc2090	0.49243593
10	0x3f32f215	0.6990064
11	0x3ed3a666	0.4133789
12	0x3f8efa02	1.1170046
13	0xc0062cb1	-2.0964777
14	0x3f92af00	1.1459656
15	0xbe87dea1	-0.2653704
16	0xbf4c3f62	-0.79784214
17	0xbeb37741	-0.3505192
18	0xbe5fea36	-0.21866688
19	0x3f7e39fc	0.9930723
20	0xbee97572	-0.45597416
21	0x3e96cb26	0.29451865
22	0xbf218509	-0.6309362
23	0x3f0d8e25	0.5529502
24	0xbca55b60	-0.020185173
25	0x3ed5aab9	0.41731814
26	0xbdff4ce7	-0.1246584
27	0xbfb9ccc5	-1.4515616
28	0x3f59e414	0.85113645
29	0xbe2bf0d9	-0.16791095
30	0xbedf5e82	-0.4362679
31	0x3dedc01f	0.1160891
32	0x3f477e02	0.7792665
33	0xbe9949dc	-0.29939163
34	0xbf1ab46b	-0.60431546
35	0xbd1ca0b3	-0.038239192
36	0xbe472587	-0.1944791
37	0x3f950be5	1.1644255
38	0x3f191799	0.5980163
39	0xbee46949	-0.44611576
40	0xbef44091	-0.4770551
41	0x3eb464b3	0.35233077
42	0xbd922e0a	-0.071376875
43	0xbf65bcee	-0.8974141
44	0x3eccc2c8	0.39992356
45	0x3d1fa781	0.038978104
46	0xbf2cb895	-0.6746915
47	0xbe682c1f	-0.22673081
48	0x3eeced09	0.46274593
49	0x3f456cac	0.77118945
50	0xbf05e3fc	-0.52301
51	0x3fc0ffe3	1.507809
52	0x3db1e6aa	0.08686574
53	0x3fc2963c	1.5202098
54	0x3f61a628	0.8814416
55	0xbeeab529	-0.4584134
56	0xbf677110	-0.90406895
57	0x3d94e47a	0.07270141
58	0x3e6b0ca4	0.22954041
59	0x3eb98c8f	0.3624005
60	0xbce3b6c0	-0.027797103
61	0xbf56822e	-0.8379239
62	0x3ed734d0	0.4203248
63	0x3e92fc3c	0.28708065
64	0x3f4fd5ae	0.81185424
65	0x3e071f07	0.1319543
66	0xbee10c9d	-0.43954936
67	0x3f6a20eb	0.9145648
68	0x3f898e24	1.0746503
69	0x3e4e6902	0.20157245
70	0x3f92ff6b	1.1484197
71	0xbfe28a7d	-1.7698513
72	0xbf68483d	-0.90735227
73	0x3ec52319	0.3850334
74	0x3ea73ba5	0.32662693
75	0x3fa89e88	1.317338
76	0x3e8c03d2	0.27346665
77	0x3e483e7d	0.19555087
78	0xbfa6d8b6	-1.3034885
79	0xbe3ae4c5	-0.18251331
80	0x3f4a68d1	0.7906619
81	0xbf038aa0	-0.513834
82	0x3fb7d044	1.4360433
83	0xbd80012f	-0.06250226
84	0x3ce0a98b	0.027424594
85	0xbe90e509	-0.2829974
86	0x3f9f0a20	1.2424965
87	0xbd58acda	-0.05289922
88	0xbf29de03	-0.6635439
89	0xbd8d42f7	-0.06897538
90	0x3e8c45ea	0.2739709
91	0xbe591d9d	-0.21202703
92	0xbef23967	-0.4730942
93	0xbf70109f	-0.9377536
94	0x3f81fa95	1.0154597
95	0xbeb55a73	-0.3542057
96	0xbf918b6a	-1.1370671
97	0x3f9186e6	1.1369293
98	0x3ffeff39	1.9921638
99	0x3e119a2e	0.14218971
100	0xbf40b22e	-0.7527188
101	0xbfb63e15	-1.4237696
102	0x3e98e55a	0.2986248
103	0xbefe9b6c	-0.49727952
104	0xbe6f0b87	-0.23344241
105	0x3d578b1e	0.052622907
106	0x3f887aaa	1.0662434
107	0x3f3839cc	0.7196319
108	0x3e090f8d	0.13384838
109	0xbe5bc117	-0.21460377
110	0xbe129cf9	-0.14317693
111	0x3ef7d2a7	0.48402902
112	0x3ebf61e5	0.37379375
113	0xbee7fd04	-0.45310223
114	0x3e58a2d4	0.21155864
115	0x3d082fd8	0.033248752
116	0x3ed17caa	0.40915424
117	0xbcd5f0c5	-0.026115784
118	0xbed86c5b	-0.4227017
119	0x3f534198	0.82521963
120	0x3f1ae3bf	0.6050376
121	0xbf6e42e8	-0.9307084
122	0xbf7cd3d9	-0.98760754
123	0x4003f8ed	2.0620682
124	0xbf18448e	-0.59479606
125	0x3d65bfa9	0.056090984
126	0xbf90dee6	-1.1318023
127	0x3eaee55a	0.34159356
128	0x3f3040f3	0.68849105
129	0xbe0cd934	-0.13754731
130	0xbecadd1f	-0.39621827
131	0x3db4327d	0.087986924
132	0xbfa19cbe	-1.2625959
133	0xbe592025	-0.21203668
134	0x3efc61c4	0.4929334
135	0xbe286fc6	-0.16448888
136	0xbf068a77	-0.5255503
137	0xbf01652a	-0.5054499
138	0xbf2d839a	-0.67778933
139	0xbe741246	-0.23835096
140	0xbfa21df0	-1.2665386
141	0x3e865443	0.26236162
142	0xbf20d0aa	-0.62818396
143	0x3f0a2f4c	0.5397842
144	0xbdbb37ab	-0.09141477
145	0xbf7d9e0e	-0.990693
146	0x3deaf6ee	0.11472879
147	0xbf65456b	-0.8955905
148	0xbda93686	-0.08262353
149	0xbfa916b6	-1.3210056
150	0x3e34ae6b	0.1764466
151	0xbf15b4b2	-0.58478844
152	0xbf0dc3d3	-0.5537693
153	0x3ebdf7e7	0.37103197
154	0xbcf5ff24	-0.030028887
155	0x3f573949	0.84071785
156	0xbf240956	-0.64076746
157	0x3ee494d4	0.44644797
158	0xbf60b329	-0.87773377
159	0xbca2ee37	-0.01988898
160	0x3e8c230c	0.2737049
161	0x3cefadbe	0.029257651
162	0xbf25633b	-0.6460454
163	0xbfcf8e78	-1.6215353
164	0x3f5f788f	0.8729333
165	0x3fc42c8d	1.5326096
166	0xbdda0fac	-0.106475204
167	0xbe88f563	-0.26749715
168	0xbeea796b	-0.4579576
169	0x3e8b60b8	0.27222228
170	0xbe866f6e	-0.2625689
171	0x3f0f1e30	0.5590544
172	0xbf19f7b9	-0.6014362
173	0xbe03a4d3	-0.12855844
174	0xbe3c9b39	-0.18418588
175	0xbf8ee2f3	-1.116301
176	0xbea7660c	-0.32695043
177	0x3ec98e59	0.39366415
178	0xbe627bbe	-0.22117516
179	0xbf91b439	-1.1383125
180	0x3f0449e5	0.51675254
181	0xbd962b27	-0.073324494
182	0x3f8a5774	1.0807939
183	0xbda53206	-0.08066182
184	0xbd3b9a1a	-0.04580126
185	0x3f68d9ae	0.9095715
186	0xbeb1098c	-0.34577596
187	0x3c03212a	0.008003512
188	0xbd136cfb	-0.035992604
189	0x3ecee436	0.40408486
190	0xbec44139	-0.3833101
191	0x3e38ef76	0.18060097
192	0x3f360e96	0.71116006
193	0xbdd55658	-0.104168594
194	0x3f4c65df	0.7984294
195	0xbecd4b86	-0.40096682
196	0x3eff9b07	0.49922964
197	0xbf662706	-0.89903295
198	0x3f73fb08	0.9530492
199	0xbf2ae9f2	-0.6676322
200	0x3f39a5e1	0.72518736
201	0xbf1d7795	-0.6151059
202	0x3f8aa939	1.0832893
203	0xbe7918a4	-0.24325806
204	0x3ddca9f7	0.10774606
205	0x3e26eeb6	0.16301998
206	0xbe88e81f	-0.26739594
207	0xbd694a36	-0.05695554
208	0xbe84e1dc	-0.25953567
209	0x3f4a495c	0.7901819
210	0xbea2fd18	-0.3183372
211	0xbf1ec166	-0.6201385
212	0x3f0a9e3f	0.54147714
213	0xbf9328ad	-1.1496788
214	0xbdd3df89	-0.1034537
215	0xbf9aaa3a	-1.2083199
216	0xbf00f626	-0.5037559
217	0x3f5f4cc7	0.8722653
218	0xbfbcd215	-1.4751612
219	0x3f020f96	0.5080503
220	0xbfc3ec42	-1.5306475
221	0x3f58ea9f	0.84733003
222	0xbe76bf9c	-0.2409653
223	0xbef7e416	-0.48416203
224	0xbf1bcad4	-0.60856366
225	0x3e9ed867	0.31024477
226	0xbf13d872	-0.57752144
227	0xbe9fe6ca	-0.31230766
228	0xbcdcc2a7	-0.026948286
229	0x3f2de004	0.67919946
230	0x3da2cd59	0.07949323
231	0xbf823df6	-1.0175159
232	0xbf3bd5a4	-0.73372865
233	0xbf5da0eb	-0.86573666
234	0xbe9446c1	-0.2896023
235	0x3fbc387d	1.4704739
236	0x3f5b0924	0.8556082
237	0xbf0fc6ca	-0.56162703
238	0xbf75dd3e	-0.96040714
239	0x3ef7de22	0.4841166
240	0x3f25871a	0.64659274
241	0xbf160326	-0.58598554
242	0xbe13f396	-0.1444839
243	0x3cd7e8a0	0.026356041
244	0xbf1a99ee	-0.6039113
245	0xbeb93f75	-0.36181226
246	0x3fbbf815	1.4685084
247	0xbefef2d3	-0.49794635
248	0xbe3bb989	-0.18332495
249	0xbdbdd3a7	-0.09268885
250	0x3f58f4ca	0.8474852
251	0x3f103b87	0.5634083
252	0x3f156993	0.5836422
253	0x3e05b592	0.13057545
254	0xbf813cf1	-1.0096723
255	0x3f12be04	0.5732119

lstm.weight_hh_l0_reverse f4 [264, 66]
0	0x3b244d1a	0.002507037
1	0xbc0ff2a3	-0.008785876
2	0x3da4369d	0.08018229
3	0xbddd46ef	-0.10804545
4	0xbc2892a5	-0.010288869
5	0xbdda3614	-0.10654846
6	0x3be051df	0.0068456973
7	0x3cabc228	0.020966604
8	0xbdeb227a	-0.11481185
9	0x3c1ac5ac	0.009446543
10	0x3d4fa743	0.050696623
11	0xbc554ef4	-0.013019312
12	0x3ce2fc14	0.02770809
13	0xbcb12633	-0.02162466
14	0xbdd129c6	-0.10213046
15	0xbca95293	-0.020669257
16	0xbcb1e267	-0.021714402
17	0xbd864d72	-0.0655774
18	0x3c20a238	0.009804301
19	0x3db50d7e	0.08840464
20	0xbdfaf0b6	-0.12252943
21	0x3d4d64f6	0.050145112
22	0xbc1c3fa0	-0.009536654
23	0x3c9f7572	0.019465182
24	0xbd9ce929	-0.07661659
25	0x3ddf503c	0.10903975
26	0x3cf5640d	0.029954934
27	0x3da3b642	0.07993747
28	0x3d96e6b8	0.07368225
29	0x3ddeae49	0.10873086
30	0x3bf475ce	0.0074603325
31	0xbd01f943	-0.031731855
32	0xbdd597eb	-0.10429367
33	0x3d025ddb	0.03182779
34	0xbd187687	-0.03722241
35	0x3d34295a	0.04398475
36	0xbd49c405	-0.049259204
37	0x3dc63530	0.096781135
38	0x3ccb5b74	0.024823882
39	0xbdbd59bc	-0.09245631
40	0x3d9790c1	0.074006565
41	0x3daa920d	0.08328638
42	0x3d8bc479	0.068245836
43	0xbdf157c2	-0.117843166
44	0x3b3d3ed7	0.0028876567
45	0xbd8b6fc7	-0.06808429
46	0x3dc2425f	0.094853155
47	0x3c4e63ea	0.012597064
48	0xbdea5e0a	-0.11443718
49	0xbdf33d4b	-0.11876925
50	0x3dcd6413	0.10028853
51	0x3c649514	0.013951559
52	0xbb6c02b8	-0.0036012363
53	0xbdd6e1ac	-0.10492262
54	0xbdd20dbc	-0.10256526
55	0xbbff2b2d	-0.0077871294
56	0xbdc5f0ae	-0.09665047
57	0xbd35633c	-0.04428409
58	0xbd99d3f6	-0.075111315
59	0x3dc78c5a	0.09743567
60	0x3dabecf2	0.08394803
61	0xbd723756	-0.059134804
62	0x3deaf66f	0.11472785
63	0xbdb5489d	-0.088517405
64	0xbd5aa080	-0.05337572
65	0x3d53b03a	0.051681735
66	0xbd7543e0	-0.059879184
67	0x3c3efc8e	0.011656893
68	0x3dc254e3	0.09488847
69	0xbdd3e218	-0.10345858
70	0xbd94d7c5	-0.07267717
71	0x3b3dc779	0.0028958006
72	0xbdb7d659	-0.089764304
73	0xbd9744ee	-0.07386194
74	0xbd9c68d5	-0.076371826
75	0xbdf4edc2	-0.11959411
76	0x3de9cf44	0.11416486
77	0xbd5c46df	-0.053778525
78	0xbd60f16a	-0.05491773
79	0x3dcec2c7	0.100957446
80	0x3dfc02aa	0.12305196
81	0xbc1ce7c5	-0.009576743
82	0x3dfaa778	0.122389734
83	0x3c8cdb11	0.017194303
84	0x3dfb39a8	0.122668564
85	0x3da6af79	0.081389375
86	0x3cbb14a7	0.022836996
87	0x3d15816c	0.03650038
88	0xbcbd0a58	-0.023076221
89	0x3df0ec0d	0.11763773
90	0xbda637e2	-0.081161276
91	0xbc046326	-0.008080279
92	0xbd1d68a1	-0.03842986
93	0xbd0c856d	-0.034306932
94	0xbc695da7	-0.01424352
95	0xba8bcc9b	-0.0010665836
96	0x3c8e991f	0.017406998
97	0x3dec89c0	0.11549711
98	0xbd891902	-0.06694223
99	0x3d8e7ac5	0.0695701
100	0x3d27ff81	0.041015152
101	0x3d6c9f1f	0.057768937
102	0xbdf8cbf2	-0.121482745
103	0x3dc57b1f	0.09642624
104	0xbc1f2d11	-0.0097153345
105	0x3d5f21fa	0.054475762
106	0x3dd443c5	0.103644885
107	0xbcc4df1a	-0.024032164
108	0x3b6ab0f5	0.003581104
109	0xbc51d67b	-0.012807484
110	0x3df123de	0.11774419
111	0x3d9c9c89	0.07647044
112	0xbd8c5cfc	-0.06853673
113	0xbdab6af8	-0.08370012
114	0xb8807a0c	-6.1262486e-05
115	0x3de07392	0.10959543
116	0xbd5b9c19	-0.053615663
117	0x3daadb84	0.083426505
118	0x3d1dcaf7	0.03852364
119	0x3dbb1ca1	0.0913632
120	0x3da4e073	0.08050623
121	0x3d559c8c	0.052151248
122	0x3d1ee289	0.03879026
123	0xbb710a81	-0.0036779942
124	0xbcd4ecda	-0.025991846
125	0x3d939f77	0.0720815
126	0x3d8b3c6b	0.06798633
127	0x3db00d12	0.08596243
128	0x3c70e9e2	0.0147041995
129	0xbcda5be8	-0.026655152
130	0xbc76daed	-0.015066844
131	0xbde16a11	-0.11006559
132	0xbc924c86	-0.017858755
133	0x3b9750a5	0.004617768
134	0xbd0be16c	-0.034150526
135	0xbdc17699	-0.09446449
136	0x3cad400c	0.021148704
137	0xbd3d7e43	-0.04626299
138	0xbcdd5446	-0.027017724
139	0x3dd09b15	0.101858296
140	0xbdf3d42c	-0.11905703
141	0xbde586c7	-0.11207347
142	0xbdc4e30d	-0.09613619
143	0x3d8599e3	0.06523492
144	0xbd853fc1	-0.06506301
145	0x3d0a7c89	0.033810172
146	0x3d965380	0.07340145
147	0x3db6d6b5	0.08927671
148	0xbdf4c66a	-0.11951907
149	0x3d97bd27	0.07409125
150	0xbbd1aed8	-0.006399017
151	0xbdc1ec46	-0.09468894
152	0xbd1e4045	-0.03863551
153	0x3d11ae7a	0.035566784
154	0x3db7fe7b	0.08984085
155	0xba5b9470	-0.0008376306
156	0x3d99e406	0.07514195
157	0x3de66110	0.11248982
158	0xbbfe8348	-0.007767115
159	0xbc177e21	-0.00924638
160	0x3dee493a	0.116350606
161	0x3ddf0e2e	0.108913764
162	0xbddf1d44	-0.10894254
163	0xbb5e06f9	-0.0033878668
164	0x3d0259f3	0.031824064
165	0xbd954366	-0.07288246
166	0xbd5e7d1c	-0.054318532
167	0xbcf7db92	-0.030256066
168	0xbd8064f3	-0.062692545
169	0x3cfa318c	0.030541204
170	0xbdcce14d	-0.1000391
171	0xbdce9252	-0.10086502
172	0x3dd00777	0.10157674
173	0xbd0c0289	-0.034182105
174	0x3dd37cee	0.10326563
175	0x3d5665c2	0.052343138
176	0xbdd1e646	-0.10248999
177	0xbcf5fa60	-0.030026615
178	0xbde57087	-0.112031035
179	0xbdf432ca	-0.1192375
180	0x3db3fa72	0.08788003
181	0x3d97b5f7	0.07407754
182	0xbda496cb	-0.08036574
183	0xbdd25fb6	-0.10272162
184	0x3d420daa	0.047376312
185	0x3ccdbd77	0.025114758
186	0x3cc39310	0.023873836
187	0xbdce1b64	-0.10063818
188	0x3dc35bdd	0.09539006
189	0x3ddf2093	0.10894885
190	0xbded2f9c	-0.115813464
191	0x3d379829	0.044822846
192	0xbc906a01	-0.017628672
193	0x3d07e1cf	0.033174332
194	0xbbe10d77	-0.00686806
195	0xbdbd7732	-0.0925125
196	0x3ddbd10b	0.10733231
197	0xbd33c7d1	-0.04389173
198	0xbc9c7343	-0.01909793
199	0xbd1cc6d7	-0.038275566
200	0x3df8e45b	0.1215293
201	0xbc35dd34	-0.011100102
202	0xbdc67454	-0.096901566
203	0xbdc9a496	-0.098458454
204	0x3dcf95f3	0.101360224
205	0xbd1b3eff	-0.037901875
206	0xbcf3494f	-0.029698042
207	0xbbc9f0f3	-0.0061627566
208	0xbd53afb4	-0.051681235
209	0x3d2eee45	0.0427077
210	0x3d227b6e	0.039668493
211	0xbda5059f	-0.08057713
212	0xbd3ee8a1	-0.04660857
213	0xbda12375	-0.07868091
214	0x3db6e43c	0.08930251
215	0x3da23e3d	0.07922027
216	0xbc1fffad	-0.009765548
217	0x3b96756b	0.004591634
218	0xbd1b5df4	-0.037931398
219	0xbb98df37	-0.004665281
220	0xbd0d7a1e	-0.03454029
221	0xbca32e7b	-0.019919625
222	0xba53eada	-0.0008084007
223	0x3dd518bf	0.104051106
224	0xbcb1d86f	-0.021709649
225	0xbcfb054c	-0.030642174
226	0xbd03b721	-0.032157067
227	0x3d804853	0.06263795
228	0xbdef6140	-0.11688471
229	0x3d97543f	0.073891155
230	0x3d9b7b8a	0.075919226
231	0xbdcdb930	-0.10045087
232	0x3daffa68	0.08592683
233	0x3de4492f	0.11146771
234	0xbdfa9ae2	-0.12236573
235	0x3b967334	0.00459137
236	0x3df64288	0.120244086
237	0xbde4df44	-0.11175397
238	0xbd6066c0	-0.05478549
239	0xbd908469	-0.07056505
240	0x3dfb7761	0.12278629
241	0xbde674a9	-0.1125272
242	0x3db573f5	0.08860008
243	0x3db61743	0.088911556
244	0xbcc90295	-0.024537364
245	0xbc66b877	-0.014082066
246	0x3ddfabe6	0.10921459
247	0x3d263f78	0.040587872
248	0xbde85b7a	-0.11345573
249	0x3d58bfc0	0.052917242
250	0xbdbd8a18	-0.09254855
251	0x3d45f7f0	0.048332155
252	0x3df2256f	0.11823546
253	0xbd882d0c	-0.06649217
254	0xbda9798f	-0.082751386
255	0xbd11e2aa	-0.035616554
